submit/deploy/generate_trajectory/model_DQN.pt (torch, 19326 bytes, 17 tensors)

tp1.output_mask f4 [40]
1.0 1.0 1.0 1.0 1.0 1.0 1.0 1.0
1.0 1.0 1.0 1.0 1.0 1.0 1.0 1.0
1.0 1.0 1.0 1.0 1.0 1.0 1.0 1.0
1.0 1.0 1.0 1.0 1.0 1.0 1.0 1.0
1.0 1.0 1.0 1.0 1.0 1.0 1.0 1.0
00000000: 0000 803f 0000 803f 0000 803f 0000 803f
00000010: 0000 803f 0000 803f 0000 803f 0000 803f
00000020: 0000 803f 0000 803f 0000 803f 0000 803f
00000030: 0000 803f 0000 803f 0000 803f 0000 803f
00000040: 0000 803f 0000 803f 0000 803f 0000 803f
00000050: 0000 803f 0000 803f 0000 803f 0000 803f
00000060: 0000 803f 0000 803f 0000 803f 0000 803f
00000070: 0000 803f 0000 803f 0000 803f 0000 803f
00000080: 0000 803f 0000 803f 0000 803f 0000 803f
00000090: 0000 803f 0000 803f 0000 803f 0000 803f

tp1._compiled_main_left_right._w3j_1_1_2 f4 [3, 3, 5]
0.0 0.0 -0.18257418 0.0 -0.31622776 0.0 0.31622776 0.0
0.0 0.0 0.31622776 0.0 0.0 0.0 0.0 0.0
0.31622776 0.0 0.0 0.0 0.0 0.0 0.36514837 0.0
0.0 0.0 0.0 0.0 0.31622776 0.0 0.31622776 0.0
0.0 0.0 0.0 0.0 0.0 0.0 0.31622776 0.0
0.0 0.0 -0.18257418 0.0 0.31622776
00000000: 0000 0000 0000 0000 baf4 3abe 0000 0000
00000010: 9be8 a1be 0000 0000 9be8 a13e 0000 0000
00000020: 0000 0000 0000 0000 9be8 a13e 0000 0000
00000030: 0000 0000 0000 0000 0000 0000 0000 0000
00000040: 9be8 a13e 0000 0000 0000 0000 0000 0000
00000050: 0000 0000 0000 0000 baf4 ba3e 0000 0000
00000060: 0000 0000 0000 0000 0000 0000 0000 0000
00000070: 9be8 a13e 0000 0000 9be8 a13e 0000 0000
00000080: 0000 0000 0000 0000 0000 0000 0000 0000
00000090: 0000 0000 0000 0000 9be8 a13e 0000 0000
000000a0: 0000 0000 0000 0000 baf4 3abe 0000 0000
000000b0: 9be8 a13e

tp1._compiled_main_left_right._w3j_1_2_1 f4 [3, 5, 3]
0.0 0.0 0.31622776 0.0 0.31622776 0.0 -0.18257418 0.0
0.0 0.0 0.0 0.0 -0.31622776 0.0 0.0 0.0
0.0 0.0 0.31622776 0.0 0.0 0.0 0.36514837 0.0
0.0 0.0 0.31622776 0.0 0.0 0.0 0.31622776 0.0
0.0 0.0 0.0 0.0 0.0 0.0 -0.18257418 0.0
0.31622776 0.0 0.0 0.0 0.31622776
00000000: 0000 0000 0000 0000 9be8 a13e 0000 0000
00000010: 9be8 a13e 0000 0000 baf4 3abe 0000 0000
00000020: 0000 0000 0000 0000 0000 0000 0000 0000
00000030: 9be8 a1be 0000 0000 0000 0000 0000 0000
00000040: 0000 0000 0000 0000 9be8 a13e 0000 0000
00000050: 0000 0000 0000 0000 baf4 ba3e 0000 0000
00000060: 0000 0000 0000 0000 9be8 a13e 0000 0000
00000070: 0000 0000 0000 0000 9be8 a13e 0000 0000
00000080: 0000 0000 0000 0000 0000 0000 0000 0000
00000090: 0000 0000 0000 0000 baf4 3abe 0000 0000
000000a0: 9be8 a13e 0000 0000 0000 0000 0000 0000
000000b0: 9be8 a13e

tp2.output_mask f4 [40]
1.0 1.0 1.0 1.0 1.0 1.0 1.0 1.0
1.0 1.0 1.0 1.0 1.0 1.0 1.0 1.0
1.0 1.0 1.0 1.0 1.0 1.0 1.0 1.0
1.0 1.0 1.0 1.0 1.0 1.0 1.0 1.0
1.0 1.0 1.0 1.0 1.0 1.0 1.0 1.0
00000000: 0000 803f 0000 803f 0000 803f 0000 803f
00000010: 0000 803f 0000 803f 0000 803f 0000 803f
00000020: 0000 803f 0000 803f 0000 803f 0000 803f
00000030: 0000 803f 0000 803f 0000 803f 0000 803f
00000040: 0000 803f 0000 803f 0000 803f 0000 803f
00000050: 0000 803f 0000 803f 0000 803f 0000 803f
00000060: 0000 803f 0000 803f 0000 803f 0000 803f
00000070: 0000 803f 0000 803f 0000 803f 0000 803f
00000080: 0000 803f 0000 803f 0000 803f 0000 803f
00000090: 0000 803f 0000 803f 0000 803f 0000 803f

tp2._compiled_main_left_right._w3j_1_1_2 f4 [3, 3, 5]
0.0 0.0 -0.18257418 0.0 -0.31622776 0.0 0.31622776 0.0
0.0 0.0 0.31622776 0.0 0.0 0.0 0.0 0.0
0.31622776 0.0 0.0 0.0 0.0 0.0 0.36514837 0.0
0.0 0.0 0.0 0.0 0.31622776 0.0 0.31622776 0.0
0.0 0.0 0.0 0.0 0.0 0.0 0.31622776 0.0
0.0 0.0 -0.18257418 0.0 0.31622776
00000000: 0000 0000 0000 0000 baf4 3abe 0000 0000
00000010: 9be8 a1be 0000 0000 9be8 a13e 0000 0000
00000020: 0000 0000 0000 0000 9be8 a13e 0000 0000
00000030: 0000 0000 0000 0000 0000 0000 0000 0000
00000040: 9be8 a13e 0000 0000 0000 0000 0000 0000
00000050: 0000 0000 0000 0000 baf4 ba3e 0000 0000
00000060: 0000 0000 0000 0000 0000 0000 0000 0000
00000070: 9be8 a13e 0000 0000 9be8 a13e 0000 0000
00000080: 0000 0000 0000 0000 0000 0000 0000 0000
00000090: 0000 0000 0000 0000 9be8 a13e 0000 0000
000000a0: 0000 0000 0000 0000 baf4 3abe 0000 0000
000000b0: 9be8 a13e

tp2._compiled_main_left_right._w3j_1_2_1 f4 [3, 5, 3]
0.0 0.0 0.31622776 0.0 0.31622776 0.0 -0.18257418 0.0
0.0 0.0 0.0 0.0 -0.31622776 0.0 0.0 0.0
0.0 0.0 0.31622776 0.0 0.0 0.0 0.36514837 0.0
0.0 0.0 0.31622776 0.0 0.0 0.0 0.31622776 0.0
0.0 0.0 0.0 0.0 0.0 0.0 -0.18257418 0.0
0.31622776 0.0 0.0 0.0 0.31622776
00000000: 0000 0000 0000 0000 9be8 a13e 0000 0000
00000010: 9be8 a13e 0000 0000 baf4 3abe 0000 0000
00000020: 0000 0000 0000 0000 0000 0000 0000 0000
00000030: 9be8 a1be 0000 0000 0000 0000 0000 0000
00000040: 0000 0000 0000 0000 9be8 a13e 0000 0000
00000050: 0000 0000 0000 0000 baf4 ba3e 0000 0000
00000060: 0000 0000 0000 0000 9be8 a13e 0000 0000
00000070: 0000 0000 0000 0000 9be8 a13e 0000 0000
00000080: 0000 0000 0000 0000 0000 0000 0000 0000
00000090: 0000 0000 0000 0000 baf4 3abe 0000 0000
000000a0: 9be8 a13e 0000 0000 0000 0000 0000 0000
000000b0: 9be8 a13e

tp2._compiled_main_left_right._w3j_2_1_1 f4 [5, 3, 3]
0.0 0.0 0.31622776 0.0 0.0 0.0 0.31622776 0.0
0.0 0.0 0.31622776 0.0 0.31622776 0.0 0.0 0.0
0.0 0.0 -0.18257418 0.0 0.0 0.0 0.36514837 0.0
0.0 0.0 -0.18257418 0.0 0.0 0.0 0.0 0.0
0.31622776 0.0 0.31622776 0.0 -0.31622776 0.0 0.0 0.0
0.0 0.0 0.0 0.0 0.31622776
00000000: 0000 0000 0000 0000 9be8 a13e 0000 0000
00000010: 0000 0000 0000 0000 9be8 a13e 0000 0000
00000020: 0000 0000 0000 0000 9be8 a13e 0000 0000
00000030: 9be8 a13e 0000 0000 0000 0000 0000 0000
00000040: 0000 0000 0000 0000 baf4 3abe 0000 0000
00000050: 0000 0000 0000 0000 baf4 ba3e 0000 0000
00000060: 0000 0000 0000 0000 baf4 3abe 0000 0000
00000070: 0000 0000 0000 0000 0000 0000 0000 0000
00000080: 9be8 a13e 0000 0000 9be8 a13e 0000 0000
00000090: 9be8 a1be 0000 0000 0000 0000 0000 0000
000000a0: 0000 0000 0000 0000 0000 0000 0000 0000
000000b0: 9be8 a13e

tp2._compiled_main_left_right._w3j_2_2_2 f4 [5, 5, 5]
0.0 0.0 -0.23904572 0.0 0.0 0.0 0.0 0.0
0.20701967 0.0 -0.23904572 0.0 0.0 0.0 0.0 0.0
0.20701967 0.0 0.0 0.0 0.0 0.0 0.0 0.0
0.0 0.0 0.0 0.0 0.20701967 0.0 0.0 0.0
0.11952286 0.0 -0.20701967 0.0 0.11952286 0.0 0.0 0.0
0.20701967 0.0 0.0 0.0 0.0 0.0 -0.20701967 0.0
0.0 0.0 -0.23904572 0.0 0.0 0.0 0.0 0.0
0.11952286 0.0 0.0 0.0 0.0 0.0 0.23904572 0.0
0.0 0.0 0.0 0.0 0.11952286 0.0 0.0 0.0
0.0 0.0 -0.23904572 0.0 0.20701967 0.0 0.0 0.0
0.20701967 0.0 0.0 0.0 0.0 0.0 0.0 0.0
0.11952286 0.0 0.0 0.0 0.11952286 0.0 0.20701967 0.0
0.0 0.0 0.20701967 0.0 0.0 0.0 0.0 0.0
0.0 0.0 -0.20701967 0.0 0.0 0.0 0.0 0.0
0.0 0.0 -0.23904572 0.0 0.0 0.0 0.20701967 0.0
0.0 0.0 -0.23904572 0.0 0.0
00000000: 0000 0000 0000 0000 67c8 74be 0000 0000
00000010: 0000 0000 0000 0000 0000 0000 0000 0000
00000020: f7fc 533e 0000 0000 67c8 74be 0000 0000
00000030: 0000 0000 0000 0000 0000 0000 0000 0000
00000040: f7fc 533e 0000 0000 0000 0000 0000 0000
00000050: 0000 0000 0000 0000 0000 0000 0000 0000
00000060: 0000 0000 0000 0000 0000 0000 0000 0000
00000070: f7fc 533e 0000 0000 0000 0000 0000 0000
00000080: 67c8 f43d 0000 0000 f7fc 53be 0000 0000
00000090: 67c8 f43d 0000 0000 0000 0000 0000 0000
000000a0: f7fc 533e 0000 0000 0000 0000 0000 0000
000000b0: 0000 0000 0000 0000 f7fc 53be 0000 0000
000000c0: 0000 0000 0000 0000 67c8 74be 0000 0000
000000d0: 0000 0000 0000 0000 0000 0000 0000 0000
000000e0: 67c8 f43d 0000 0000 0000 0000 0000 0000
000000f0: 0000 0000 0000 0000 67c8 743e 0000 0000
00000100: 0000 0000 0000 0000 0000 0000 0000 0000
00000110: 67c8 f43d 0000 0000 0000 0000 0000 0000
00000120: 0000 0000 0000 0000 67c8 74be 0000 0000
00000130: f7fc 533e 0000 0000 0000 0000 0000 0000
00000140: f7fc 533e 0000 0000 0000 0000 0000 0000
00000150: 0000 0000 0000 0000 0000 0000 0000 0000
00000160: 67c8 f43d 0000 0000 0000 0000 0000 0000
00000170: 67c8 f43d 0000 0000 f7fc 533e 0000 0000
00000180: 0000 0000 0000 0000 f7fc 533e 0000 0000
00000190: 0000 0000 0000 0000 0000 0000 0000 0000
000001a0: 0000 0000 0000 0000 f7fc 53be 0000 0000
000001b0: 0000 0000 0000 0000 0000 0000 0000 0000
000001c0: 0000 0000 0000 0000 67c8 74be 0000 0000
000001d0: 0000 0000 0000 0000 f7fc 533e 0000 0000
000001e0: 0000 0000 0000 0000 67c8 74be 0000 0000
000001f0: 0000 0000

fc1.layer0.weight f4 [1, 8]
0.2744863 1.251132 -0.61512274 1.7388616 -0.30797052 0.052065853 -0.6753051 -1.4617954
00000000: 7889 8c3e 1825 a03f af78 1dbf 0493 de3f
00000010: 50ae 9dbe 0143 553d cce0 2cbf 1d1c bbbf

fc1.layer1.weight f4 [8, 8]
-0.27381417 -0.34859318 -0.14309804 0.7443459 2.0619135 -0.40351817 0.48530158 -0.5242819
-1.2347214 0.15038496 0.8023333 1.1148264 -0.3452109 1.3269143 1.0083171 1.3886144
0.72825766 -0.088146016 0.28366137 0.6017178 0.549954 1.000988 0.5719428 -0.85404617
-0.702905 1.6415683 -1.3369776 -1.1634461 0.7856051 -0.5890153 2.4221857 1.0722299
-0.19945005 0.020943398 1.0141604 0.112950794 0.41452143 -0.052128978 -0.062764324 0.6032487
-0.62119406 -1.262602 -0.52305126 -1.157664 0.4717399 -1.394956 -1.3345013 0.70671517
-1.0374862 -1.0899457 -0.09045052 -1.094649 -1.9867486 -0.48496827 -0.35818657 -0.7247941
0.26286417 -0.38686112 0.5140259 -0.68630165 -0.18238947 -0.8204567 0.5392308 -0.30188507
00000000: 5f31 8cbe ce7a b2be 4b88 12be 748d 3e3f
00000010: 64f6 0340 ef99 cebe 7379 f83e 5737 06bf
00000020: 5a0b 9ebf 84fe 193e b765 4d3f a2b2 8e3f
00000030: 7cbf b0be 54d8 a93f 8910 813f 1ebe b13f
00000040: 186f 3a3f e685 b4bd 103c 913e 2e0a 1a3f
00000050: c9c9 0c3f 6020 803f d86a 123f c5a2 5abf
00000060: 95f1 33bf e91e d23f 1522 abbf cdeb 94bf
00000070: 6a1d 493f b5c9 16bf 1705 1b40 d43e 893f
00000080: a23c 4cbe 7d91 ab3c 02d0 813f bf52 e73d
00000090: 273c d43e 3285 55bd 958a 80bd 826e 1a3f
000000a0: 9306 1fbf f19c a1bf b0e6 05bf 552e 94bf
000000b0: e487 f13e eb8d b2bf f0d0 aabf 49eb 343f
000000c0: 59cc 84bf 5783 8bbf 1f3e b9bd 751d 8cbf
000000d0: c74d febf c34d f8be 3b64 b7be 1b8c 39bf
000000e0: 2296 863e a912 c6be 3497 033f 77b1 2fbf
000000f0: 4ec4 3abe 7309 52bf 080b 0a3f ae90 9abe

fc1.layer2.weight f4 [8, 20]
-0.75926745 -3.0114863 1.2290418 -0.03376179 -0.7625502 0.026879624 1.7736939 0.35997579
0.046644326 -0.8309303 1.5081825 -0.101463184 0.55376434 2.1319363 0.51576847 -1.1217304
0.111743845 0.2460658 0.8641049 0.9017388 -0.5127661 0.6628517 1.2292889 -0.97699285
-0.8438611 -0.19603667 -1.8925257 0.039038543 0.49319065 0.7196398 0.71702325 0.11529242
0.4343509 -0.22508937 -2.4358003 0.28815693 -0.08516946 1.5429136 0.4676457 -0.3222924
1.1189153 0.62259775 0.38439164 0.20694733 0.776866 0.6351 0.10252749 -0.028122727
-0.9193596 0.13312826 0.79655755 -1.6291268 -0.54724246 0.25633118 0.118135504 1.1223234
0.8276604 -1.3673964 1.5191456 1.5401164 0.48162636 -2.0032673 0.17609642 0.35887447
0.8878724 -1.6326095 1.3280017 -0.94244677 0.437327 1.4294378 0.97242963 -0.21643135
0.18527353 -0.28820956 -0.90201586 0.75776047 -0.32222453 0.6846978 0.1175896 0.53592515
-0.22096604 -1.2627581 -0.008514476 -1.1898438 -1.2835153 0.9718975 0.34419987 -1.2404963
-0.67014766 -0.13744241 0.344654 -0.14338097 -0.05456575 -0.26832065 -0.48231933 -0.6565028
-0.52594185 -0.95667934 0.20226198 0.83253294 0.27836153 -1.7919261 -0.723578 -2.7158532
-0.601418 -1.6441917 -0.51011956 1.0230787 -1.3272247 -0.2528563 0.070008114 -0.35375425
-1.1257411 -1.1877242 -1.4289762 -0.92905957 -0.541851 -0.29370353 0.5244671 -1.0296463
-0.25924134 0.097277984 0.7429683 0.52862656 -0.38340843 -1.2362938 0.66989785 -0.49950945
-1.3225064 -0.21460949 -0.6765307 0.30603513 0.80176216 -0.18022172 0.02920033 1.1324366
-0.9891647 0.049122605 -0.7140215 -0.20074983 1.1312697 0.29197562 0.21672232 -0.19662951
-0.09149655 0.5487753 -0.74042207 -0.68781996 -2.5036192 1.1462038 -1.9636713 0.9128566
0.29486394 -0.15522812 1.1967024 -0.38188913 -1.0892191 1.7875909 -0.8474178 0.44076136
00000000: 5a5f 42bf 31bc 40c0 3e51 9d3f cd49 0abd
00000010: 7d36 43bf a832 dc3c 6708 e33f bf4e b83e
00000020: 1f0e 3f3d d9b7 54bf 200c c13f eecb cfbd
00000030: 80c3 0d3f a571 0840 6709 043f dd94 8fbf
00000040: f5d9 e43d acf8 7b3e fb35 5d3f 5bd8 663f
00000050: a444 03bf a6b0 293f 5759 9d3f 341c 7abf
00000060: 4807 58bf d6bd 48be 483e f2bf e1e6 1f3d
00000070: 7c83 fc3e 503a 383f d68e 373f 6f1e ec3d
00000080: 3e63 de3e d47d 66be 27e4 1bc0 4e89 933e
00000090: 536d aebd 317e c53f 426f ef3e 8203 a5be
000000a0: 9e38 8f3f 9162 1f3f fbce c43e 00ea 533e
000000b0: b1e0 463f ea95 223f eff9 d13d a261 e6bc
000000c0: 275b 6bbf c652 083e 32eb 4b3f 3a87 d0bf
000000d0: 1518 0cbf d73d 833e 07f1 f13d 4ba8 8f3f
000000e0: 8de1 533f d806 afbf 5d73 c23f 8922 c53f
000000f0: bb97 f63e 8835 00c0 9f52 343e 65be b73e
00000100: 9b4b 633f 59f9 d0bf f6fb a93f 3144 71bf
00000110: 53e9 df3e d1f7 b63f 26f1 783f 2ea0 5dbe
00000120: 58b8 3d3e 3490 93be 83ea 66bf 97fc 413f
00000130: 9dfa a4be 5b48 2f3f d1d2 f03d 6432 093f
00000140: ec44 62be 0fa2 a1bf 4d80 0bbc cd4c 98bf
00000150: 3b4a a4bf 46ce 783f f73a b03e 95c8 9ebf
00000160: cc8e 2bbf b4bd 0cbe 7d76 b03e 76d2 12be
00000170: 5680 5fbd 5361 89be 8ff2 f6be 9110 28bf
00000180: 20a4 06bf f0e8 74bf c41d 4f3e e120 553f
00000190: 6785 8e3e d65d e5bf 683c 39bf 8ad0 2dc0
000001a0: 88f6 19bf e074 d2bf 3297 02bf 3ef4 823f
000001b0: 80e2 a9bf 6276 81be 6a60 8f3d 471f b5be
000001c0: 4918 90bf 5907 98bf b1e8 b6bf d9d6 6dbf
000001d0: bfb6 0abf 4f60 96be 7a43 063f 73cb 83bf
000001e0: 48bb 84be ae39 c73d 2c33 3e3f 1254 073f
000001f0: 1c4e c4be e03e 9ebf 6d7e 2b3f b4bf ffbe
00000200: e447 a9bf 97c2 5bbe 1e31 2dbf a3b0 9c3e
00000210: 4940 4d3f 0b8c 38be 8835 ef3c aff3 903f
00000220: e639 7dbf c934 493d 1dca 36bf 5d91 4dbe
00000230: 72cd 903f d47d 953e 75ec 5d3e 3f59 49be
00000240: 8b62 bbbd 8a7c 0c3f 4d8c 3dbf f814 30bf
00000250: 4c3b 20c0 ceb6 923f 9559 fbbf f8b0 693f
00000260: 68f8 963e 1ff4 1ebe 8b2d 993f f986 c3be
00000270: 886b 8bbf c7cf e43f 5ff0 58bf 79ab e13e

fc2.layer0.weight f4 [1, 8]
0.98185676 0.89743215 -0.024577647 -1.4067216 0.6457448 1.6789193 0.9796515 -0.49972028
00000000: f75a 7b3f 1dbe 653f 1057 c9bc 740f b4bf
00000010: 884f 253f d4e6 d63f 71ca 7a3f 56db ffbe

fc2.layer1.weight f4 [8, 8]
0.28113127 0.6457193 0.71893096 1.1610407 0.5464325 0.80616325 1.976872 0.51101553
1.2450771 0.46072137 2.3423295 -0.14419839 -0.90258175 0.25560096 2.0135393 -0.20844197
-0.015762482 0.5556711 -0.22894663 -0.34279597 -0.7350507 -0.062522754 0.42278484 1.6794385
2.0716329 -0.16889216 -0.4082233 -1.3050085 1.6109318 -1.2266859 -0.10980379 0.31717157
-0.21147871 -0.119073786 -0.19973974 -0.37131113 1.4985106 1.9050735 1.2498465 0.3529872
-1.4932814 0.90175426 1.3957692 1.9250107 0.3001206 1.4313556 1.1603156 0.3648816
-1.0023208 1.1039971 1.0611162 0.95977396 1.6131104 0.14636867 -0.85323375 -1.9103339
0.93224454 0.3820085 1.5517603 -0.29863647 -1.9416957 -0.10430606 0.21873394 0.3185448
00000000: 70f0 8f3e dc4d 253f dc0b 383f fb9c 943f
00000010: 00e3 0b3f b760 4e3f 240a fd3f ead1 023f
00000020: b05e 9f3f ace3 eb3e bae8 1540 bea8 13be
00000030: 990f 67bf 21de 823e d4dd 0040 d071 55be
00000040: 5220 81bc 7640 0e3f fc70 6abe f482 afbe
00000050: 482c 3cbf ee0b 80bd 4177 d83e d7f7 d63f
00000060: a295 0440 11f2 2cbe a502 d1be 850a a7bf
00000070: 0333 ce3f 0b04 9dbf cfe0 e0bd 5064 a23e
00000080: e08d 58be f5dc f3bd 9388 4cbe 7e1c bebe
00000090: 32cf bf3f 73d9 f33f f8fa 9f3f bdba b43e
000000a0: d823 bfbf 5ed9 663f 91a8 b23f c066 f63f
000000b0: 68a9 993e a936 b73f 3985 943f c3d1 ba3e
000000c0: 0c4c 80bf c74f 8d3f a8d2 873f bfb3 753f
000000d0: 677a ce3f abe1 153e 876d 5abf d285 f4bf
000000e0: 94a7 6e3f 9e96 c33e 15a0 c63f e1e6 98be
000000f0: 7c89 f8bf 6a9e d5bd cafb 5f3e 4e18 a33e

fc2.layer2.weight f4 [8, 288]
0.82935596 0.6550603 1.4139653 -1.2017885 -0.09960932 1.4451469 0.49954483 -0.075179674
1.1373327 1.9917074 -0.06874925 0.12541686 -0.21391405 -1.0344465 -0.682312 0.21393046
1.5298135 -1.8567017 0.08568064 -1.6427103 1.4499722 0.28718343 -1.2717875 -0.85108185
-0.20642416 -0.40546134 -0.17726931 0.4535654 0.38261938 0.07916541 0.8185695 -0.40842858
0.34101406 0.4019338 1.3234414 0.81545156 -0.5353269 -1.0736054 -0.15995081 -0.104162976
-0.91734606 0.20111461 -1.1738702 0.6847006 -1.7243539 0.10140393 -1.530982 3.0095534
0.6268787 0.7797585 0.09432118 2.4433193 -0.20269959 -0.8149973 -0.70107967 1.0913147
0.84406036 1.1022211 -0.31701937 -0.18771245 -1.7734277 0.7175383 2.1071224 -0.4652322
1.847781 -1.043766 -0.9267278 -1.5550654 -0.27705225 -0.59415 -0.81584007 -2.4830408
0.7263151 -0.89016 0.9486359 0.5050345 -0.58968294 -0.21039866 -0.21072215 -0.5003436
0.0146534145 -0.35926414 -1.6746862 0.91069263 1.3521727 1.6487986 1.5791677 0.62330145
1.3276439 1.0258433 0.8163907 1.0407329 2.0092103 0.853946 0.41330054 -0.3113358
0.5647995 0.20873815 0.5213051 -1.4171543 1.7065191 0.6714239 -0.70779616 0.8280579
0.7507215 -0.039070487 -0.7426062 0.052789345 -0.6186761 -0.30833155 0.10552158 0.4539658
-0.5345123 0.9244137 -0.8461455 -1.409302 -1.8481439 0.9021958 -0.35145026 -0.46098274
-0.12524976 -0.45311925 -0.8241376 -0.04861394 1.0798469 1.3000094 -0.124966435 0.06084702
0.26745465 -0.23075388 1.1985207 1.2228764 0.4029919 1.1745824 -0.42308313 3.329235
1.9527682 -1.3362517 0.3288492 0.5894962 -0.08598703 0.69449925 0.5420135 0.5346885
-0.5329505 -1.8872864 -0.42141438 0.59247875 -0.12867002 0.15024404 1.1300597 1.8556893
-0.8990931 0.6650985 -0.4349719 -0.84289795 -0.049476203 0.120104685 -0.41446248 0.65912527
0.074334055 0.5523767 0.21297772 0.13718861 -1.3148432 0.491022 -1.1254842 0.35049012
-0.120027706 0.40751618 1.10567 0.04952274 -0.02322159 -0.67730004 0.7813329 0.85148454
0.7014115 -0.51337576 -0.81393045 -0.57520604 0.9106648 1.8974146 0.16473672 -1.170575
0.04700911 -2.4315298 1.1355073 1.0722255 0.66559017 0.19530675 0.36048344 -2.2646167
-0.40289155 1.1896404 1.4921507 0.14959048 1.761812 -1.2506236 1.6291039 -1.0108144
-0.55127084 -0.86616665 -1.983269 -0.108783826 0.014356485 0.6621026 -0.24606864 0.1634709
-0.7040047 -0.22345826 0.020366367 0.6195785 1.3159739 -0.2439969 1.9116503 -1.0594409
-0.29047766 -0.312547 -1.1183842 1.1911836 0.8906815 1.9653254 0.4140095 -0.5741962
0.50068843 0.48866555 -0.99899775 -1.2189149 -1.8741623 0.45645213 0.6530096 2.8789122
-1.2648954 -0.82039684 -0.28799173 1.16513 -1.6263744 0.5771809 0.27395853 -0.752184
0.38526696 0.71849626 0.43562472 1.3174132 -1.5369488 -0.66639596 0.064663626 -0.507648
0.22835946 -0.108165346 -0.30801982 0.52029145 1.4909759 0.08869242 0.43821302 0.38297155
00000000: ac50 543f 08b2 273f d1fc b43f 35d4 99bf
00000010: f9ff cbbd 93fa b83f 57c4 ff3e cdf7 99bd
00000020: 1e94 913f 45f0 fe3f 68cc 8cbd 476d 003e
00000030: 490c 5bbe be68 84bf 00ac 2ebf 9610 5b3e
00000040: eed0 c33f 67a8 edbf 5579 af3d 5544 d2bf
00000050: b098 b93f b509 933e efc9 a2bf 80e0 59bf
00000060: db60 53be a198 cfbe 1686 35be b939 e83e
00000070: b0e6 c33e 7921 a23d c58d 513f 8d1d d1be
00000080: 6599 ae3e 44ca cd3e 8766 a93f 6fc1 503f
00000090: 2f0b 09bf e76b 89bf 25ca 23be 6653 d5bd
000000a0: 31d7 6abf fdf0 4d3e 6141 96bf 8a48 2f3f
000000b0: a1b7 dcbf ddac cf3d 38f7 c3bf 869c 4040
000000c0: 1f7b 203f 419e 473f 762b c13d 585f 1c40
000000d0: 7b90 4fbe aaa3 50bf f579 33bf 33b0 8b3f
000000e0: 5714 583f 9515 8d3f 5d50 a2be b137 40be
000000f0: aeff e2bf 97b0 373f 18db 0640 ea32 eebe
00000100: 1684 ec3f 209a 85bf 083e 6dbf 620c c7bf
00000110: cbd9 8dbe 371a 18bf e5da 50bf 24ea 1ec0
00000120: c9ef 393f 87e1 63bf cdd9 723f f149 013f
00000130: 76f5 16bf bf72 57be 8cc7 57be 8516 00bf
00000140: e014 703c 78f1 b7be 1e5c d6bf 2723 693f
00000150: ff13 ad3f d50b d33f 2b22 ca3f af90 1f3f
00000160: 3cf0 a93f d54e 833f fbfe 503f bc36 853f
00000170: e796 0040 349c 5a3f 219c d33e 6867 9fbe
00000180: b396 103f 74bf 553e 4074 053f 5065 b5bf
00000190: 386f da3f 70e2 2b3f 2132 35bf 9afb 533f
000001a0: 492f 403f 6008 20bd 711b 3ebf a439 583d
000001b0: 8f61 1ebf a2dd 9dbe b31b d83d 356e e83e
000001c0: ccd5 08bf 60a6 6c3f fe9c 58bf 0264 b4bf
000001d0: fb8f ecbf 4ef6 663f 4af1 b3be ee05 ecbe
000001e0: 7941 00be 3fff e7be affa 52bf 691f 47bd
000001f0: 6c38 8a3f b566 a63f 67ee ffbd ba3a 793d
00000200: d1ef 883e bf4a 6cbe 2069 993f 3787 9c3f
00000210: f454 ce3e b758 963f 5a9e d8be 3012 5540
00000220: 4ff4 f93f 4c0a abbf ec5e a83e 39e9 163f
00000230: f819 b0bd b4ca 313f 66c1 0a3f 58e1 083f
00000240: 726f 08bf 9a92 f1bf a0c3 d7be b0ac 173f
00000250: 13c2 03be 93d9 193e cca5 903f 3a87 ed3f
00000260: f72a 66bf e543 2a3f a3b4 debe 29c8 57bf
00000270: 8fa7 4abd 72f9 f53d 6d34 d4be 6fbc 283f
00000280: 743c 983d 8f68 0d3f d516 5a3e 2c7b 0c3e
00000290: c84c a8bf 3c67 fb3e de0f 90bf 7173 b33e
000002a0: 16d1 f5bd f6a5 d03e 9886 8d3f 5bd8 4a3d
000002b0: 343b bebc 8963 2dbf 6f05 483f e4fa 593f
000002c0: b48f 333f 986c 03bf bf5d 50bf b440 13bf
000002d0: 5421 693f 7bde f23f beb0 283e 67d5 95bf
000002e0: a08c 403d 2f9e 1bc0 4e58 913f af3e 893f
000002f0: 1e64 2a3f 7efe 473e 4991 b83e 7bef 10c0
00000300: cd47 cebe 2346 983f cbfe be3f 3f2e 193e
00000310: 0e83 e13f 6f14 a0bf 7a86 d03f 5e62 81bf
00000320: 1620 0dbf 19bd 5dbf c2db fdbf 0eca debd
00000330: 7637 6b3c 8e7f 293f 6bf9 7bbe ea64 273e
00000340: a739 34bf 3ed2 64be 5ed7 a63c b29c 1e3f
00000350: d571 a83f 53da 79be f5b0 f43f c29b 87bf
00000360: 7db9 94be 2906 a0be 3727 8fbf b478 983f
00000370: b403 643f c88f fb3f 0ef9 d33e 86fe 12bf
00000380: 1e2d 003f 5f32 fa3e 51be 7fbf 6705 9cbf
00000390: 8de4 efbf 18b4 e93e a32b 273f 1940 3840
000003a0: 18e8 a1bf 8705 52bf a773 93be fb22 953f
000003b0: 092d d0bf 21c2 133f 4b44 8c3e 218f 40bf
000003c0: b641 c53e 5fef 373f 340a df3e ffa0 a83f
000003d0: bdba c4bf ed98 2abf 5d6e 843d 38f5 01bf
000003e0: 10d7 693e cb85 ddbd c6b4 9dbe d231 053f
000003f0: 4cd8 be3f 5fa4 b53d 755d e03e d914 c43e

fc3.layer0.weight f4 [1, 8]
0.6096661 2.248939 -0.42641532 -1.9805458 -2.2464414 -0.45532596 -2.6362943e-05 -0.27517697
00000000: 1413 1c3f 9eee 0f40 1c53 dabe 8682 fdbf
00000010: b2c5 0fc0 7c20 e9be fd25 ddb7 ffe3 8cbe

fc3.layer1.weight f4 [8, 8]
0.21200061 -1.1694659 2.058594 -0.08085353 1.2299509 0.5224406 0.64498836 0.59769607
2.010935 -1.4004383 0.19407523 0.018993555 0.6706173 -0.18288179 -0.495151 -0.16404387
-0.38289353 -0.73619735 -2.4663763 -0.50160754 0.16805048 0.9494678 1.3818326 0.4459414
0.83463 -0.5531483 1.3723179 -0.07584026 1.5472335 -1.3110464 0.08162003 0.27000564
0.06581017 1.564196 0.24395399 1.2751101 -1.9008518 1.9827313 -0.0056722425 0.63219243
-1.0777638 -2.3362515 -0.8233174 -0.57688457 -0.15661913 1.1089888 1.6451637 0.40246883
-0.8610226 -0.66652435 0.16987652 -1.064768 0.2545714 1.1225337 -1.2389382 -0.2963486
-0.2790807 2.2214277 0.76919514 -2.1617327 0.5654042 0.3322904 -1.0616148 1.4739014
00000000: b016 593e 0fb1 95bf 01c0 0340 8996 a5bd
00000010: 086f 9d3f abbe 053f f51d 253f 9c02 193f
00000020: 29b3 0040 9041 b3bf a8bb 463e 5f98 9b3c
00000030: 93ad 2b3f 5d45 3bbe 6f84 fdbe 1efb 27be
00000040: 9f0a c4be 6e77 3cbf 1cd9 1dc0 5a69 00bf
00000050: 6d15 2c3e 5210 733f e4df b03f 6e52 e43e
00000060: 50aa 553f 219b 0dbf 1da8 af3f 2352 9bbd
00000070: bf0b c63f 5ed0 a7bf 6728 a73d 2e3e 8a3e
00000080: 7bc7 863d 9337 c83f 13cf 793e cf36 a33f
00000090: 1d4f f3bf 24ca fd3f 38de b9bb 5dd7 213f
000000a0: 2af4 89bf 2585 15c0 eec4 52bf b5ae 13bf
000000b0: c460 20be 58f3 8d3f b994 d23f 6510 ce3e
000000c0: fa6b 5cbf 57a1 2abf 1cf4 2d3e 514a 88bf
000000d0: 2f57 823e 2faf 8f3f 8795 9ebf 01bb 97be
000000e0: aae3 8ebe df2b 0e40 f9e9 443f d459 0ac0
000000f0: 54be 103f f821 aa3e fee2 87bf cda8 bc3f

fc3.layer2.weight f4 [8, 16]
-0.69695926 1.6302261 2.6121252 -2.1042309 -0.18551911 -0.30668572 0.2685467 -0.32321036
-1.2637757 0.013154122 -0.22568916 -1.0299453 0.40558138 -2.7000415 -0.5901283 -0.16481824
-0.34515128 0.13764934 -0.49811885 0.17364457 0.56945205 0.12673129 -0.75094455 -0.4014844
-0.77912456 0.21106449 -1.882268 -1.6926131 1.8458532 -0.35283393 -0.233502 -0.22388816
0.32322663 0.30052674 -1.0541617 -0.09193509 -0.075566955 -0.11922967 -0.5580519 -0.122639306
1.232374 -1.2458342 1.1371046 -0.7100633 0.0334264 0.25179544 -1.6175115 2.3626359
0.65589124 -0.09310563 -0.90235883 0.12722757 0.84501606 0.719096 -1.9951807 -0.44218367
-2.2375662 -0.3422179 -0.8659642 -0.49935707 0.052638903 -0.736323 -0.50713474 -0.42291263
1.6542265 -0.9938444 -0.030218098 -0.29104522 -0.02460817 -0.6189988 -1.2043608 1.2454733
1.3964251 -2.2316353 -0.20736426 2.1503253 0.59513885 1.1112795 -1.5810112 -0.89334923
1.1103592 -0.93839777 1.0784447 1.3678099 0.25932992 -0.5551161 0.054200884 1.4247618
0.85665596 -0.8736908 0.14419083 -1.1597798 -0.22462778 1.366957 1.2828807 -0.25506428
0.5460311 0.23716016 0.83389264 -0.22458538 -0.9228557 0.7396407 0.22799852 0.95612293
0.96876186 2.0193293 -0.214303 -1.0728751 -0.1599968 0.304304 0.33212417 -0.7265733
-1.3878708 -0.2393129 0.644574 0.8032615 1.030598 0.900446 -1.5047262 -0.6294949
-0.831814 0.14220126 -1.1857033 1.5732132 -0.31162652 -1.038118 0.74950427 -0.7835181
00000000: ec6b 32bf 40ab d03f 0f2d 2740 b8ab 06c0
00000010: b9f8 3dbe e905 9dbe f47e 893e d47b a5be
00000020: 67c3 a1bf 6384 573c 0f1b 67be 3fd5 83bf
00000030: 5da8 cf3e 7bcd 2cc0 a612 17bf 1dc6 28be
00000040: abb7 b0be f3f3 0c3e 6f09 ffbe e2cf 313e
00000050: 9cc7 113f d9c5 013e e73d 40bf 5d8f cdbe
00000060: b574 47bf 4a21 583e 28ee f0bf 8ca7 d8bf
00000070: eb44 ec3f a6a6 b4be 261b 6fbe f042 65be
00000080: f67d a53e a4de 993e c5ee 86bf 7748 bcbd
00000090: d9c2 9abd af2e f4bd 7ddc 0ebf 512a fbbd
000000a0: 6ebe 9d3f 7f77 9fbf a58c 913f b5c6 35bf
000000b0: 1fea 083d 55eb 803e 9e0a cfbf 6d35 1740
000000c0: 7de8 273f 2aae bebd fd00 67bf f247 023e
000000d0: f952 583f ad16 383f 1562 ffbf e665 e2be
000000e0: 4934 0fc0 2f37 afbe d4af 5dbf bbab ffbe
000000f0: e49b 573d aa7f 3cbf 95d3 01bf 0188 d8be
00000100: b2bd d33f 966c 7ebf f28b f7bc e103 95be
00000110: 1397 c9bc b576 1ebf 7f28 9abf ab6b 9f3f
00000120: 0fbe b23f 1dd3 0ec0 4c57 54be ee9e 0940
00000130: 055b 183f 683e 8e3f 935e cabf 89b2 64bf
00000140: 4020 8e3f d63a 70bf 7a0a 8a3f 6514 af3f
00000150: e4c6 843e 171c 0ebf bf01 5e3d 985e b63f
00000160: ce4d 5b3f 33aa 5fbf c3a6 133e aa73 94bf
00000170: d304 66be 72f8 ae3f 6f35 a43f c997 82be
00000180: b2c8 0b3f 1dda 723e fd79 553f b6f9 65be
00000190: 4540 6cbf 1859 3d3f 7278 693e 79c4 743f
000001a0: c700 783f b13c 0140 3f72 5bbe f953 89bf
000001b0: 33d6 23be bccd 9b3e 2e0c aa3e b500 3abf
000001c0: c0a5 b1bf 710e 75be cd02 253f 8ca2 4d3f
000001d0: a3ea 833f a183 663f de9a c0bf 9426 21bf
000001e0: c3f1 54bf 359d 113e 20c5 97bf 0d5f c93f
000001f0: 838d 9fbe 0de1 84bf 83df 3f3f a494 48bf
