deploy/generate_trajectory/model_DDQN.pt (torch, 19627 bytes, 17 tensors)

tp1.output_mask f4 [40]
00000000: 0000 803f 0000 803f 0000 803f 0000 803f
00000010: 0000 803f 0000 803f 0000 803f 0000 803f
00000020: 0000 803f 0000 803f 0000 803f 0000 803f
00000030: 0000 803f 0000 803f 0000 803f 0000 803f
00000040: 0000 803f 0000 803f 0000 803f 0000 803f
00000050: 0000 803f 0000 803f 0000 803f 0000 803f
00000060: 0000 803f 0000 803f 0000 803f 0000 803f
00000070: 0000 803f 0000 803f 0000 803f 0000 803f
00000080: 0000 803f 0000 803f 0000 803f 0000 803f
00000090: 0000 803f 0000 803f 0000 803f 0000 803f
1.0 1.0 1.0 1.0 1.0 1.0 1.0 1.0
1.0 1.0 1.0 1.0 1.0 1.0 1.0 1.0
1.0 1.0 1.0 1.0 1.0 1.0 1.0 1.0
1.0 1.0 1.0 1.0 1.0 1.0 1.0 1.0
1.0 1.0 1.0 1.0 1.0 1.0 1.0 1.0

tp1._compiled_main_left_right._w3j_1_1_2 f4 [3, 3, 5]
00000000: 0000 0000 0000 0000 baf4 3abe 0000 0000
00000010: 9be8 a1be 0000 0000 9be8 a13e 0000 0000
00000020: 0000 0000 0000 0000 9be8 a13e 0000 0000
00000030: 0000 0000 0000 0000 0000 0000 0000 0000
00000040: 9be8 a13e 0000 0000 0000 0000 0000 0000
00000050: 0000 0000 0000 0000 baf4 ba3e 0000 0000
00000060: 0000 0000 0000 0000 0000 0000 0000 0000
00000070: 9be8 a13e 0000 0000 9be8 a13e 0000 0000
00000080: 0000 0000 0000 0000 0000 0000 0000 0000
00000090: 0000 0000 0000 0000 9be8 a13e 0000 0000
000000a0: 0000 0000 0000 0000 baf4 3abe 0000 0000
000000b0: 9be8 a13e
0.0 0.0 -0.18257418 0.0 -0.31622776 0.0 0.31622776 0.0
0.0 0.0 0.31622776 0.0 0.0 0.0 0.0 0.0
0.31622776 0.0 0.0 0.0 0.0 0.0 0.36514837 0.0
0.0 0.0 0.0 0.0 0.31622776 0.0 0.31622776 0.0
0.0 0.0 0.0 0.0 0.0 0.0 0.31622776 0.0
0.0 0.0 -0.18257418 0.0 0.31622776

tp1._compiled_main_left_right._w3j_1_2_1 f4 [3, 5, 3]
00000000: 0000 0000 0000 0000 9be8 a13e 0000 0000
00000010: 9be8 a13e 0000 0000 baf4 3abe 0000 0000
00000020: 0000 0000 0000 0000 0000 0000 0000 0000
00000030: 9be8 a1be 0000 0000 0000 0000 0000 0000
00000040: 0000 0000 0000 0000 9be8 a13e 0000 0000
00000050: 0000 0000 0000 0000 baf4 ba3e 0000 0000
00000060: 0000 0000 0000 0000 9be8 a13e 0000 0000
00000070: 0000 0000 0000 0000 9be8 a13e 0000 0000
00000080: 0000 0000 0000 0000 0000 0000 0000 0000
00000090: 0000 0000 0000 0000 baf4 3abe 0000 0000
000000a0: 9be8 a13e 0000 0000 0000 0000 0000 0000
000000b0: 9be8 a13e
0.0 0.0 0.31622776 0.0 0.31622776 0.0 -0.18257418 0.0
0.0 0.0 0.0 0.0 -0.31622776 0.0 0.0 0.0
0.0 0.0 0.31622776 0.0 0.0 0.0 0.36514837 0.0
0.0 0.0 0.31622776 0.0 0.0 0.0 0.31622776 0.0
0.0 0.0 0.0 0.0 0.0 0.0 -0.18257418 0.0
0.31622776 0.0 0.0 0.0 0.31622776

tp2.output_mask f4 [40]
00000000: 0000 803f 0000 803f 0000 803f 0000 803f
00000010: 0000 803f 0000 803f 0000 803f 0000 803f
00000020: 0000 803f 0000 803f 0000 803f 0000 803f
00000030: 0000 803f 0000 803f 0000 803f 0000 803f
00000040: 0000 803f 0000 803f 0000 803f 0000 803f
00000050: 0000 803f 0000 803f 0000 803f 0000 803f
00000060: 0000 803f 0000 803f 0000 803f 0000 803f
00000070: 0000 803f 0000 803f 0000 803f 0000 803f
00000080: 0000 803f 0000 803f 0000 803f 0000 803f
00000090: 0000 803f 0000 803f 0000 803f 0000 803f
1.0 1.0 1.0 1.0 1.0 1.0 1.0 1.0
1.0 1.0 1.0 1.0 1.0 1.0 1.0 1.0
1.0 1.0 1.0 1.0 1.0 1.0 1.0 1.0
1.0 1.0 1.0 1.0 1.0 1.0 1.0 1.0
1.0 1.0 1.0 1.0 1.0 1.0 1.0 1.0

tp2._compiled_main_left_right._w3j_1_1_2 f4 [3, 3, 5]
00000000: 0000 0000 0000 0000 baf4 3abe 0000 0000
00000010: 9be8 a1be 0000 0000 9be8 a13e 0000 0000
00000020: 0000 0000 0000 0000 9be8 a13e 0000 0000
00000030: 0000 0000 0000 0000 0000 0000 0000 0000
00000040: 9be8 a13e 0000 0000 0000 0000 0000 0000
00000050: 0000 0000 0000 0000 baf4 ba3e 0000 0000
00000060: 0000 0000 0000 0000 0000 0000 0000 0000
00000070: 9be8 a13e 0000 0000 9be8 a13e 0000 0000
00000080: 0000 0000 0000 0000 0000 0000 0000 0000
00000090: 0000 0000 0000 0000 9be8 a13e 0000 0000
000000a0: 0000 0000 0000 0000 baf4 3abe 0000 0000
000000b0: 9be8 a13e
0.0 0.0 -0.18257418 0.0 -0.31622776 0.0 0.31622776 0.0
0.0 0.0 0.31622776 0.0 0.0 0.0 0.0 0.0
0.31622776 0.0 0.0 0.0 0.0 0.0 0.36514837 0.0
0.0 0.0 0.0 0.0 0.31622776 0.0 0.31622776 0.0
0.0 0.0 0.0 0.0 0.0 0.0 0.31622776 0.0
0.0 0.0 -0.18257418 0.0 0.31622776

tp2._compiled_main_left_right._w3j_1_2_1 f4 [3, 5, 3]
00000000: 0000 0000 0000 0000 9be8 a13e 0000 0000
00000010: 9be8 a13e 0000 0000 baf4 3abe 0000 0000
00000020: 0000 0000 0000 0000 0000 0000 0000 0000
00000030: 9be8 a1be 0000 0000 0000 0000 0000 0000
00000040: 0000 0000 0000 0000 9be8 a13e 0000 0000
00000050: 0000 0000 0000 0000 baf4 ba3e 0000 0000
00000060: 0000 0000 0000 0000 9be8 a13e 0000 0000
00000070: 0000 0000 0000 0000 9be8 a13e 0000 0000
00000080: 0000 0000 0000 0000 0000 0000 0000 0000
00000090: 0000 0000 0000 0000 baf4 3abe 0000 0000
000000a0: 9be8 a13e 0000 0000 0000 0000 0000 0000
000000b0: 9be8 a13e
0.0 0.0 0.31622776 0.0 0.31622776 0.0 -0.18257418 0.0
0.0 0.0 0.0 0.0 -0.31622776 0.0 0.0 0.0
0.0 0.0 0.31622776 0.0 0.0 0.0 0.36514837 0.0
0.0 0.0 0.31622776 0.0 0.0 0.0 0.31622776 0.0
0.0 0.0 0.0 0.0 0.0 0.0 -0.18257418 0.0
0.31622776 0.0 0.0 0.0 0.31622776

tp2._compiled_main_left_right._w3j_2_1_1 f4 [5, 3, 3]
00000000: 0000 0000 0000 0000 9be8 a13e 0000 0000
00000010: 0000 0000 0000 0000 9be8 a13e 0000 0000
00000020: 0000 0000 0000 0000 9be8 a13e 0000 0000
00000030: 9be8 a13e 0000 0000 0000 0000 0000 0000
00000040: 0000 0000 0000 0000 baf4 3abe 0000 0000
00000050: 0000 0000 0000 0000 baf4 ba3e 0000 0000
00000060: 0000 0000 0000 0000 baf4 3abe 0000 0000
00000070: 0000 0000 0000 0000 0000 0000 0000 0000
00000080: 9be8 a13e 0000 0000 9be8 a13e 0000 0000
00000090: 9be8 a1be 0000 0000 0000 0000 0000 0000
000000a0: 0000 0000 0000 0000 0000 0000 0000 0000
000000b0: 9be8 a13e
0.0 0.0 0.31622776 0.0 0.0 0.0 0.31622776 0.0
0.0 0.0 0.31622776 0.0 0.31622776 0.0 0.0 0.0
0.0 0.0 -0.18257418 0.0 0.0 0.0 0.36514837 0.0
0.0 0.0 -0.18257418 0.0 0.0 0.0 0.0 0.0
0.31622776 0.0 0.31622776 0.0 -0.31622776 0.0 0.0 0.0
0.0 0.0 0.0 0.0 0.31622776

tp2._compiled_main_left_right._w3j_2_2_2 f4 [5, 5, 5]
00000000: 0000 0000 0000 0000 67c8 74be 0000 0000
00000010: 0000 0000 0000 0000 0000 0000 0000 0000
00000020: f7fc 533e 0000 0000 67c8 74be 0000 0000
00000030: 0000 0000 0000 0000 0000 0000 0000 0000
00000040: f7fc 533e 0000 0000 0000 0000 0000 0000
00000050: 0000 0000 0000 0000 0000 0000 0000 0000
00000060: 0000 0000 0000 0000 0000 0000 0000 0000
00000070: f7fc 533e 0000 0000 0000 0000 0000 0000
00000080: 67c8 f43d 0000 0000 f7fc 53be 0000 0000
00000090: 67c8 f43d 0000 0000 0000 0000 0000 0000
000000a0: f7fc 533e 0000 0000 0000 0000 0000 0000
000000b0: 0000 0000 0000 0000 f7fc 53be 0000 0000
000000c0: 0000 0000 0000 0000 67c8 74be 0000 0000
000000d0: 0000 0000 0000 0000 0000 0000 0000 0000
000000e0: 67c8 f43d 0000 0000 0000 0000 0000 0000
000000f0: 0000 0000 0000 0000 67c8 743e 0000 0000
00000100: 0000 0000 0000 0000 0000 0000 0000 0000
00000110: 67c8 f43d 0000 0000 0000 0000 0000 0000
00000120: 0000 0000 0000 0000 67c8 74be 0000 0000
00000130: f7fc 533e 0000 0000 0000 0000 0000 0000
00000140: f7fc 533e 0000 0000 0000 0000 0000 0000
00000150: 0000 0000 0000 0000 0000 0000 0000 0000
00000160: 67c8 f43d 0000 0000 0000 0000 0000 0000
00000170: 67c8 f43d 0000 0000 f7fc 533e 0000 0000
00000180: 0000 0000 0000 0000 f7fc 533e 0000 0000
00000190: 0000 0000 0000 0000 0000 0000 0000 0000
000001a0: 0000 0000 0000 0000 f7fc 53be 0000 0000
000001b0: 0000 0000 0000 0000 0000 0000 0000 0000
000001c0: 0000 0000 0000 0000 67c8 74be 0000 0000
000001d0: 0000 0000 0000 0000 f7fc 533e 0000 0000
000001e0: 0000 0000 0000 0000 67c8 74be 0000 0000
000001f0: 0000 0000
0.0 0.0 -0.23904572 0.0 0.0 0.0 0.0 0.0
0.20701967 0.0 -0.23904572 0.0 0.0 0.0 0.0 0.0
0.20701967 0.0 0.0 0.0 0.0 0.0 0.0 0.0
0.0 0.0 0.0 0.0 0.20701967 0.0 0.0 0.0
0.11952286 0.0 -0.20701967 0.0 0.11952286 0.0 0.0 0.0
0.20701967 0.0 0.0 0.0 0.0 0.0 -0.20701967 0.0
0.0 0.0 -0.23904572 0.0 0.0 0.0 0.0 0.0
0.11952286 0.0 0.0 0.0 0.0 0.0 0.23904572 0.0
0.0 0.0 0.0 0.0 0.11952286 0.0 0.0 0.0
0.0 0.0 -0.23904572 0.0 0.20701967 0.0 0.0 0.0
0.20701967 0.0 0.0 0.0 0.0 0.0 0.0 0.0
0.11952286 0.0 0.0 0.0 0.11952286 0.0 0.20701967 0.0
0.0 0.0 0.20701967 0.0 0.0 0.0 0.0 0.0
0.0 0.0 -0.20701967 0.0 0.0 0.0 0.0 0.0
0.0 0.0 -0.23904572 0.0 0.0 0.0 0.20701967 0.0
0.0 0.0 -0.23904572 0.0 0.0

fc1.layer0.weight f4 [1, 8]
00000000: 2b07 1240 e53b 3b3f 2d1a 623f fba6 7abe
00000010: 2614 edbe d978 ec3f c8a6 eebe 0b19 a4be
2.2816875 0.73138267 0.8832119 -0.2447776 -0.46304435 1.847438 -0.4661162 -0.32050356

fc1.layer1.weight f4 [8, 8]
00000000: 2bd9 2fbf e053 fdbf 740c 66bf 76fa 24be
00000010: 10ab 6cbe 4a8d c23e ec1f 62bf d7bc c73f
00000020: 1493 e93e 4b1b 943f cc77 a2bf 7d33 39bf
00000030: aa0d 813f d146 9b3f c590 713f 0283 d0bd
00000040: cc33 ffbf 2c4f 9a3e ce60 89bf 6bd5 363f
00000050: 59c7 e6bf d3cf cc3f 86da 16c0 a241 6e3f
00000060: 87f7 863d 6904 b0bf ef09 61bf 182b 16be
00000070: b598 663d 9938 263e 565a 70bf 25fc 1d3e
00000080: 72b6 ddbe 99a3 023d 1554 51bf 2be9 0ebd
00000090: ddeb a7be c7d8 21bf a8ef 8d3c 599b c4bf
000000a0: 1e7e 01bf 68bb 873f 7d70 47be c64d ffbe
000000b0: 2992 1e3f 7cae 0c40 c707 8bbf 4b81 2e3f
000000c0: f788 ac3f cbfd ab3f e5bf f7bf 8829 a63e
000000d0: 2b12 43bf 7cef 843f 12ad 79bf 7c49 693f
000000e0: f274 943d 6ece bf3e eb66 993f 8b3c 60bf
000000f0: 755a dabf 50fe 813f 7ec5 403f cfc2 843e
-0.6869075 -1.9791222 -0.8986275 -0.16111168 -0.2311213 0.3799842 -0.8832996 1.5604504
0.45620024 1.1570829 -1.2692809 -0.7234419 1.0082295 1.2130986 0.94361526 -0.10181238
-1.9937682 0.30138528 -1.0732667 0.714194 -1.8029586 1.6000923 -2.3570876 0.930689
0.06590181 -1.3751346 -0.8790578 -0.14664876 0.056297977 0.16232528 -0.9388784 0.15428217
-0.43303257 0.0318943 -0.81768924 -0.034890335 -0.32797137 -0.632214 0.017326191 -1.5359908
-0.50583065 1.0604067 -0.19476505 -0.49864024 0.6194177 2.1981497 -1.0861748 0.68166035
1.3479298 1.3436826 -1.9355437 0.3245356 -0.761996 1.0385585 -0.9752971 0.91127753
0.07248868 0.3746218 1.1984533 -0.8759238 -1.7058855 1.0155735 0.7530135 0.25929877

fc1.layer2.weight f4 [8, 20]
00000000: 52ee e2bf b721 233d b629 463f 8bbf 43bf
00000010: 4948 4f3e 4bde 093f a075 fd3e f29d 063f
00000020: 9b37 923f 0eea d0be e91e 563f c68c 933f
00000030: 6052 423f 3141 d2bf 71d5 d3be a3f8 7dbd
00000040: d0ec 663f 43aa 5bbe 0b8f fbbe 4b30 31bf
00000050: 60af 0bc0 d1bf bb3e 38dc acbf e9c2 673f
00000060: b043 a2be e053 a8be 426e 33bf 31c1 60bf
00000070: c0df af3f 34c1 33bf fbbf 45bf 10a9 b93f
00000080: 6028 983f cb50 293e 07c0 74bf 5f24 08c0
00000090: 9d56 a93d f2d1 febe e17d 8ebf 4b69 e93e
000000a0: 285a 0bbf bd1a afbf 0587 8fbe 6676 b8bf
000000b0: 688d adbe a6af 813f 9ecb 22bf 7c79 dcbf
000000c0: fe5a 0dbf 38b2 153c fcf0 45bf b379 46bf
000000d0: 6516 e8be 07b9 f6be da5f 9e3e 4057 033f
000000e0: 29c6 78bf f3fa bcbf 434c 03c0 8cc8 30be
000000f0: 15d3 1dbf 9639 81ba cd3d 8ebd a5a7 7dbf
00000100: 8d07 3fbe 5e3c f2bf e0f7 3f3f 9955 3b3e
00000110: 359c fabe dbc8 033e 75d3 8e3f 8c5d 283e
00000120: 93fa 9d3f 53b0 1ac0 80b0 c63e f9f3 3d3f
00000130: 36e1 653f 9b02 543f 4fd7 4d3f 7d3a 2b3f
00000140: aa83 423f db9d 273f 8bef 17c0 4299 bc3f
00000150: 7aa9 cabf ddc0 873f 3f7f c53d cbbd b2bd
00000160: 4778 4abf 33c1 063e b1fe 323f e031 8f3f
00000170: 2bb3 93bf 6578 88bf 4d09 66bf 38c1 463e
00000180: c505 313f 35c8 063f 1cab a8be c687 ed3f
00000190: 8255 c7bf e3b4 583e 721a d6bd 3380 223f
000001a0: 5804 0c3f 1952 cbbf 4b34 91be 7444 803f
000001b0: b52d 55bc 9cb6 ab3e fa46 94be 76c5 b83f
000001c0: 2023 343f ad34 33bf 944b b8be 3ba4 00c0
000001d0: 66ab 453f c474 973f 8aa1 aa3e 30b4 76bf
000001e0: fe4c fa3e 0679 17bf d5f2 3ebf a3eb a7bf
000001f0: 6bd4 5cbf 393c 68bf 9082 233e 4e1e 043f
00000200: a0b4 c03f d572 9d3f 9869 bc3d b72a 7fbf
00000210: e5a7 2e3e 5ed9 1d3f 41e2 b1be 3af3 643f
00000220: c0e9 a83f da50 7e3f ec06 4cbe 26c0 883f
00000230: c3cb e33e 9a9e 7dbe cffc 6ebf c509 013d
00000240: 5b11 303f 91e8 9a3f 82d0 38be dce8 5e3f
00000250: c6cd 843f 0f59 973e e803 b8bf 69cb a63f
00000260: c361 11bf 7f07 f33f 96d2 0440 0211 353e
00000270: 7e27 e7bf 00b2 fb3c 3063 9a3f 293d 56bf
-1.772898 0.039827075 0.77407396 -0.76464146 0.20242418 0.5385482 0.49503803 0.52584755
1.142322 -0.4080357 0.83640915 1.1527336 0.75906944 -1.6426145 -0.4137378 -0.062004697
0.902051 -0.21451668 -0.4913257 -0.69214314 -2.182579 0.36669782 -1.3504705 0.90531784
-0.31692266 -0.32876492 -0.70090115 -0.87794787 1.3740158 -0.7021668 -0.77246064 1.4504719
1.1887321 0.16534726 -0.9560551 -2.12722 0.08268473 -0.4976955 -1.1132165 0.45588145
-0.5443444 -1.3680035 -0.280327 -1.4411132 -0.33896947 1.0131729 -0.63591945 -1.7224574
-0.5521697 0.009136729 -0.7732084 -0.7752945 -0.45329586 -0.4818804 0.30932504 0.5130501
-0.9717737 -1.4764084 -2.0515296 -0.17264003 -0.6165021 -0.0009859081 -0.06945381 -0.9908393
-0.18655224 -1.8924673 0.749876 0.18294372 -0.48947302 0.12869589 1.1158282 0.16441935
1.2342094 -2.417012 0.38806534 0.742004 0.8979677 0.82816476 0.8040666 0.6688612
0.75982153 0.65475243 -2.3739955 1.473427 -1.583297 1.0605732 0.09643411 -0.087276064
-0.7908978 0.13159637 0.6991988 1.1187096 -1.1539053 -1.0661741 -0.8985794 0.19409645
0.6914943 0.5264924 -0.32943046 1.855706 -1.557297 0.21162753 -0.10454263 0.63476866
0.5469413 -1.5884429 -0.2836021 1.002089 -0.013011386 0.33537757 -0.289604 1.443526
0.70366096 -0.7000225 -0.35995162 -2.0100238 0.7721466 1.1832509 0.3332637 -0.96368694
0.48886865 -0.5916904 -0.7458928 -1.3118786 -0.86261624 -0.9071689 0.15967774 0.5160874
1.5055122 1.2300669 0.09199828 -0.9967455 0.17056234 0.616598 -0.3474293 0.89433634
1.3196335 0.9934212 -0.19924515 1.0683639 0.44491395 -0.24767533 -0.93354505 0.031503458
0.6877648 1.2102224 -0.1804829 0.87074065 1.0375297 0.29560134 -1.4376192 1.3030826
-0.567898 1.8986663 2.0753531 0.17682269 -1.8058927 0.030724525 1.206152 -0.83687073

fc2.layer0.weight f4 [1, 8]
00000000: b9fa 48be 9c30 8fbf f7e5 11c0 5984 ed3f
00000010: 80d5 59bf 918b 4f3f 387d 2f3f 2ded c13f
-0.19626893 -1.118671 -2.279661 1.8556014 -0.850914 0.81072336 0.68550444 1.5150505

fc2.layer1.weight f4 [8, 8]
00000000: 2f75 733e 9a77 273e 9196 d23f 8842 793f
00000010: db32 9ebd a50c 983e b992 aabf d4d5 e8bd
00000020: 305e fe3f 3171 853f 62f6 5dbe f7e6 3fbe
00000030: 5c48 ed3e e6e0 4fbf 0cd0 f33f 772c 3d3f
00000040: 9e27 60bf f1b8 a93d 4b9c babf f8b0 adbf
00000050: 7d1b 1bbd 5c7c cfbf 1658 abbf ac1d d7bd
00000060: 6cce 603e 682c 2bbf 22be bebd 031b da3e
00000070: 4050 4abf cea9 df3f a336 69bf 2d57 01be
00000080: 89d2 ba3f 8987 1240 0b6a 3cbd 50e1 b13e
00000090: c859 1d3f b9e8 ab3e f438 ce3e fc20 433f
000000a0: 11ac 643f b4ce 9c3e 960e 9f3f 88b1 1abd
000000b0: 9b9b a63e bb6a 063f 6318 9e3e 6ff7 7fbf
000000c0: e7b9 08be d18e 5ebf 345f febf 29ab a6bf
000000d0: 1dfb ba3f 10b3 3b3f 7c37 823f 67ac ffbe
000000e0: caa3 ce3f 6b62 a6bf fae4 2f3f 42cf c73f
000000f0: 175a 5dc0 f30a cb3e 8aa7 97be f169 05be
0.2377517 0.16354218 1.6452199 0.97367144 -0.07724544 0.29697147 -1.3326026 -0.113689095
1.9872494 1.0425168 -0.21676019 -0.1874045 0.46344268 -0.8120254 1.9047866 0.7389597
-0.8756045 0.08287228 -1.4578947 -1.3569632 -0.03786801 -1.6209826 -1.3386257 -0.10503706
0.21953744 -0.66864634 -0.09313609 0.42598733 -0.790287 1.7473695 -0.91098994 -0.12630911
1.45955 2.2895224 -0.045999568 0.34742212 0.6146512 0.3357599 0.40277827 0.76222205
0.8932505 0.30626452 1.2426326 -0.037766963 0.32540593 0.5250661 0.3087798 -0.9998693
-0.13352166 -0.8693667 -1.9872804 -1.3020984 1.4607884 0.733201 1.0173182 -0.4993622
1.6143734 -1.2998785 0.68708766 1.5610125 -3.4586236 0.3965679 -0.2962001 -0.13028695

fc2.layer2.weight f4 [8, 288]
00000000: b83f 163f 6235 c3bf 882f 2c3f 40e2 5a3f
00000010: 64fc 8a3e e124 73bf 7d96 543e 0452 9f3f
00000020: 8e12 1abe d463 29c0 b568 6b3f ce90 2fbf
00000030: 56fe d13e 53a9 ac3f 3d5a 0dc0 9e86 a7bf
00000040: 4cf7 2a3f 3b96 133f 4f78 a2bf b4ae 1a3f
00000050: 2775 863d edc0 343f bc38 803f e6db 273e
00000060: 8e43 34bf 8f38 0cbe 97e3 883f 5dc5 6ebf
00000070: 08b1 27c0 6115 7cbf 54ec 603f fcda 343f
00000080: a79d ae3e 67e8 b23d d499 c83f 9dc7 a53e
00000090: 391c a03e 1680 923f 7bfa 90bf 7ff0 d3be
000000a0: 408d 813f 1a9e ae3e 0e29 873f abe1 debe
000000b0: 9b1c 623c 0ee1 20bf 3cd3 fe3d 518d 3abf
000000c0: 80fd cfbd 5da8 d03d 5706 283f 7498 683f
000000d0: 8323 533e 129a 073f 486e dd3f 1bf9 d43e
000000e0: 2e22 e63d 3121 bc3e 38b3 a5bc 9312 7c3f
000000f0: 5de2 563f 2a76 253f 6b19 873f 24dc d63e
00000100: 2b4e 633f 04d0 863f 4bd9 203f e46d 1cbf
00000110: d75e 603f 3c7a dc3f fabf af3e e62b 173f
00000120: ac79 3d3f fbff 223f 0a1c f33e f71d bdbf
00000130: 7698 683f 3d8c 78bf d47a 24bf 2d4d c03e
00000140: 8f62 2a3f 3c45 4740 1681 833f 7c44 06bd
00000150: fe94 3a3d 910c d13e 86f5 efbd 4429 edbf
00000160: c29c 1f40 a493 90bf e746 273f f3ee 833f
00000170: 97d7 3bbf 54cf f3bf 9d08 f1be 1726 0e40
00000180: 4290 333f 586c 0d40 97a6 fabf f8fa b33e
00000190: e9d7 3c3f 8dbd 883f 87c3 f4be 8ce7 67bf
000001a0: ff9e 823f fbd3 85bf 2027 9f3f 6ad1 b03e
000001b0: a49f 6b3e 3fec 54be baf7 a03f dadb 1fc0
000001c0: a077 c6be 04b7 9a3f 379b 14c0 4d7b 3ebf
000001d0: 0dae 473f 0e1a e4bf 66fe 973d 1e22 fb3f
000001e0: 1456 af3d f19c a03e ff51 9dbf 186b 5440
000001f0: 2a6a d33e 8593 563e 183a d23e 7a6e 1bbe
00000200: 7112 ffbd c00b 3c3f 8e60 2b3f e509 9b3e
00000210: e2d5 853f 8c2d 9bbf 909e 3240 8e48 4bbf
00000220: 6d2c 09bf b90a a7bf 1f75 e53f 2c55 233e
00000230: 19fa 20bf 39a5 573f 1f52 14bf 9e37 c8bb
00000240: 5501 6cbf 8417 92bf 876e 29bf 7602 77bf
00000250: 1400 3b3e af07 14c0 de2f 013f b89f 23bf
00000260: 86a5 a2be a68e dbbf 0256 c8be 067b 5f3e
00000270: 6f64 b23f 63fb eabf fdcc 603e 9df6 56bf
00000280: c631 7ebf a5df a63f 6b00 3f3e 4da4 51bf
00000290: ca58 6dbf 43b4 073f 3af6 31be 746c 103f
000002a0: 30d6 253e fd24 babf 13dd e73f 52fe 8e3f
000002b0: d50c 443f 39a7 cbbe 5197 793e cd3f 833f
000002c0: 063c c43e d5e5 133f 48cd 98bf 6028 d6bd
000002d0: 3d1f a5bf c755 ec3e da83 ce3e 82e2 03be
000002e0: 1b91 7dbf f384 f2be 9780 a03f 36df 11bf
000002f0: f773 7abe 8af6 563d 6ac7 45bf 693c c2be
00000300: ac49 3dbf 897e 70bf af94 c53f c186 173f
00000310: 19e4 24bf e874 03bf b9b1 af3f bf18 2740
00000320: 915f a53e 5b97 84bf 9967 21c0 b19b e63e
00000330: 29bd 91be 24c0 643f 6551 2ebf d9a8 a5bc
00000340: 1e33 1dbf 1f32 8b3f 0c83 2c3f 24a3 e4be
00000350: 3640 383f 524f d1bd bb96 273f 2ad4 92be
00000360: 56b6 493f 74b7 9c3f 5608 5ebe 38a5 453f
00000370: d9e7 643f 003f 34bf 2249 abbe 6056 803f
00000380: 4cb6 a9bf 27e9 8d3f e860 2d3f cbe5 453f
00000390: 4c15 e2bf 8307 04c0 f3d8 863e 0749 d6bd
000003a0: b50d b93f ce70 42bf 0ea6 47bf a502 6ebe
000003b0: 6123 cd3f 1954 92bf 7f0a 25bf b17e 1c3f
000003c0: 04ac 6bbe bd4b babf 5ef4 38bf 06d6 84bf
000003d0: d5f8 ccbf 1d33 a5bf 7519 88bf 291a 883e
000003e0: f912 7fbf 6453 15bf 9826 c93e b9a9 e3bd
000003f0: 83d1 ae3f e643 143f 3b14 55bf c81b fd3f
0.5869098 -1.5250666 0.67260027 0.8550148 0.27145684 -0.9497815 0.20760532 1.2446904
-0.1504614 -2.646718 0.91956645 -0.6858033 0.41014355 1.3489174 -2.2086327 -1.3087957
0.66783595 0.5765111 -1.2692965 0.60422826 0.06565314 0.7060688 1.0017314 0.16392478
-0.7041558 -0.1369345 1.0694455 -0.932699 -2.6201801 -0.9847012 0.8786061 0.70646644
0.34104654 0.087357335 1.5671945 0.32378855 0.31271532 1.1445339 -1.132644 -0.4139442
1.0121231 0.34104997 1.0559404 -0.43531546 0.013800765 -0.62843406 0.124426335 -0.7287188
-0.10155773 0.10188363 0.65634674 0.90857625 0.20619015 0.5296947 1.729928 0.41596302
0.11236988 0.36744073 -0.02022706 0.9846584 0.8393915 0.6463343 1.0554632 0.4196483
0.8879115 1.0532231 0.6283156 -0.6110518 0.87644714 1.7224803 0.34326154 0.5905136
0.7401378 0.63671845 0.4748233 -1.477477 0.90857637 -0.97088987 -0.6424992 0.3755888
0.6655664 3.1136007 1.0273769 -0.032780156 0.045552246 0.408299 -0.11716752 -1.8528218
2.4939427 -1.1295056 0.65342563 1.0307297 -0.7337584 -1.9047647 -0.47076884 2.2210748
0.70141995 2.2097378 -1.9582089 0.3515241 0.7376695 1.0682846 -0.47805426 -0.9058769
1.0204772 -1.0455316 1.2433815 0.3453477 0.23010117 -0.20793246 1.25756 -2.4977937
-0.38763142 1.2087102 -2.3219736 -0.7440689 0.77999955 -1.7820451 0.074215695 1.9619787
0.0856134 0.31369737 -1.2290648 3.3190365 0.41291934 0.20954712 0.41059947 -0.15178862
-0.12454689 0.7345543 0.66944206 0.30280986 1.0455897 -1.2123275 2.790928 -0.79407585
-0.53583413 -1.3050147 1.7926368 0.15950459 -0.6288162 0.84236485 -0.57937807 -0.0061101457
-0.9218953 -1.1413426 -0.66184276 -0.9648813 0.18261749 -2.312969 0.50463665 -0.63915586
-0.3176691 -1.7152908 -0.3912812 0.21824273 1.39369 -1.8357967 0.21953197 -0.8397005
-0.992947 1.3037001 0.18652503 -0.8189133 -0.92713606 0.5300943 -0.17379084 0.56415486
0.16194987 -1.4542538 1.8114341 1.1171362 0.7658208 -0.39776018 0.24374129 1.0253845
0.38327044 0.5777257 -1.1937647 -0.1045692 -1.2900158 0.46159193 0.4033497 -0.12879375
-0.9904954 -0.47367057 1.2539243 -0.5698122 -0.244583 0.05248121 -0.77257407 -0.37936714
-0.7394054 -0.9394308 1.5436 0.59189993 -0.6441055 -0.5135026 1.3726112 2.6108854
0.32299474 -1.035869 -2.521948 0.45040658 -0.2846463 0.89355683 -0.6809295 -0.020222114
-0.61406124 1.0874671 0.6738746 -0.44655716 0.7197298 -0.10220207 0.6546437 -0.28677493
0.7879385 1.2243485 -0.21682867 0.7720523 0.8941627 -0.7040863 -0.33454233 1.002636
-1.3258758 1.1086777 0.6772599 0.7730376 -1.7662749 -2.0629585 0.26337394 -0.104631476
1.4457308 -0.75953376 -0.77987754 -0.23243196 1.6026422 -1.1431915 -0.6446914 0.61130816
-0.23014838 -1.4554363 -0.72247875 -1.0377815 -1.6013438 -1.2906224 -1.0632769 0.2658246
-0.99638325 -0.5833037 0.39287257 -0.111163564 1.3657688 0.57916105 -0.83233994 1.9774103

fc3.layer0.weight f4 [1, 8]
00000000: 3d42 3540 9d2c d13f 65ad b63f 2e49 8bbe
00000010: 9399 513f 84d8 9f3f 622f 92b8 7104 3abf
2.8321679 1.634174 1.4271666 -0.2720427 0.8187496 1.248795 -6.970648e-05 -0.7266303

fc3.layer1.weight f4 [8, 8]
00000000: 7a4a 213f 2cf7 72bf 7bb9 a13c bd3e b33e
00000010: 7507 90bf 4c8f bb3f 10a0 b13d 992f 8fbf
00000020: 05b0 303f c710 c53f f6fd 01bf cc57 4a3e
00000030: cd52 163f ffd7 5f3e 4c9b 8ebe 2e41 0fbf
00000040: 1807 973f 40d5 2cbf f296 76bf 0240 723f
00000050: feee 293f c1f2 a83f c319 fb3e 8704 f63f
00000060: 9ef9 1540 fa71 d3be c726 2a3e 0059 fa3f
00000070: 9c9c 29bf fd79 70bf 593a 2bbe deb2 30bf
00000080: 7afc 4bbf 20f7 fabd 209b 67be f1fe 0a40
00000090: 03d1 23bf 3d83 073f 701a 3a3f 7ead 0a3f
000000a0: 45ab 6c3c 23cd 683f 4239 14be b942 e73f
000000b0: 18f5 7a3f 2f99 163f 984a 85be 2cb8 373f
000000c0: a3f6 03bf e9d9 5abe 4a9c 833f 87d0 cc3d
000000d0: c46b a53f 6967 13c0 64df afbe b933 383f
000000e0: 9d74 6f3f 43ef 94bf 9b03 753f c4a2 0abf
000000f0: c2ed 25bf 2b77 bd3f 3ed9 bdbf fcdb 0240
0.6300427 -0.94908404 0.019741764 0.35008803 -1.1252276 1.4653106 0.086731076 -1.1186401
0.69018584 1.5395745 -0.5077814 0.19760054 0.58720094 0.2185974 -0.27852857 -0.5595883
1.179904 -0.67512894 -0.96324074 0.9462892 0.663803 1.3199083 0.49043092 1.9220132
2.3433604 -0.41297895 0.16616355 1.9558411 -0.6625459 -0.9393614 -0.16721477 -0.6902293
-0.79682124 -0.122541666 -0.22617769 2.1718104 -0.639908 0.5293463 0.7269659 0.5417098
0.014445131 0.90938014 -0.14474967 1.8067237 0.98030233 0.5882749 -0.26033473 0.717654
-0.5154821 -0.21372189 1.0282071 0.10000711 1.2923512 -2.3031867 -0.3435012 0.7195392
0.9353731 -1.1635517 0.95708627 -0.5415461 -0.64815915 1.4801992 -1.4831922 2.0446768

fc3.layer2.weight f4 [8, 16]
00000000: 0554 c0be d4fe 8f3e eb4c 26c0 ec77 bdbf
00000010: b0c4 c7bf 6c63 38bf 5c58 353f 3b58 b4bf
00000020: defa 81bf dcd1 b73e 2d54 88bf ab4b bdbd
00000030: b8f5 433e f6ab 973d b3b9 b3bf 63df 9abc
00000040: 696e 093f 24e4 163f e593 4b3f 7132 d4be
00000050: 6d65 f33f 37b8 80be d33c 33bf 00f8 65bf
00000060: cba3 67be f0fb 88bd c264 053f 898f f6be
00000070: dff6 bb3f 32a3 083e 01ce 373f c826 17bf
00000080: 1ba6 f2bd 0302 41bf d7bb ab3f cd1e 17c0
00000090: 9bff 77bf 516a a5bf c695 e43f 4b8b acbf
000000a0: eafd 0ac0 aa36 93bf a055 1abf 77fb 20bd
000000b0: 4650 b1bd 592f 33bf efea 2d3f 0dcb 8bbf
000000c0: 0c9b 283f 2af2 6abe 41f3 ca3c 2abc ac3f
000000d0: a444 aa3e c658 583f 0f44 1f3c 0b18 1ec0
000000e0: b36f 043f 90ae 61bf 43e9 263f 6a5c 0d3f
000000f0: 0bae 6a3f 8ab7 90be 3e9f b03f d525 90bf
00000100: 6200 2a3f 8a21 e63e eda9 8a3f 3e8c 15bf
00000110: b426 2ec0 1a68 c73e c22d bd3f 4fe3 903e
00000120: c80a 00c0 1190 da3e 7e2f 363e 44f9 f5be
00000130: b4d7 85bf 4bda d93f f358 26be 3802 79bd
00000140: 06cf d83d b5db 973f 72fb edbf 3d82 00bf
00000150: ba50 b13f 77ca ee3f f3c9 43bc a3e7 10bc
00000160: 2380 9dbe c9ac fd3e fafb e5be 46eb 493f
00000170: 7c25 94bf 0a0b e73f 4e79 d3bd 26bb 1bbf
00000180: f3a5 c4be 5e9d e8bd 3d62 18bf 00c1 49bf
00000190: fffe 81be 2185 d9be edfe 93bc 6999 663f
000001a0: 2163 adbe 6373 2abf 9fe4 fbbd c5ef 6b3f
000001b0: 4729 9cbf a0ea c23e 6237 613f 030d d4bd
000001c0: b9e9 75bf c418 813f 6457 133f e277 9cbe
000001d0: 90a2 fbbd 1d9c 533f ea50 5ebf dbeb 84bd
000001e0: b3ec bbbe 1880 943e 907d 7e3f 6f05 87bf
000001f0: 94db a23e ecc7 933e 13e6 443e 7165 b33f
-0.37564102 0.28124106 -2.5984447 -1.4802222 -1.5606899 -0.72026706 0.7083795 -1.4089426
-1.0154684 0.35902297 -1.0650688 -0.09242948 0.19136703 0.07405846 -1.4041046 -0.018905347
0.536841 0.58941865 0.79522544 -0.41444734 1.9015328 -0.25140545 -0.70014685 -0.8983154
-0.22621076 -0.06688678 0.5210687 -0.48156384 1.4684714 0.13343504 0.7179871 -0.5904355
-0.11848088 -0.75393695 1.3416699 -2.361255 -0.968744 -1.292307 1.7858207 -1.3480009
-2.1717477 -1.1501057 -0.60286903 -0.039302316 -0.08657889 -0.6999412 0.67936605 -1.0921341
0.6586158 -0.22943941 0.024774196 1.3494923 0.33255494 0.8451046 0.009720816 -2.4702175
0.5173294 -0.88156986 0.6519968 0.5521914 0.9167182 -0.2826503 1.3798597 -1.1261545
0.66406834 0.44947463 1.0833107 -0.5841712 -2.7211123 0.3894661 1.4779589 0.28298423
-2.000658 0.4268804 0.17791554 -0.48041737 -1.0456452 1.7019743 -0.16244869 -0.06079313
0.105863616 1.1863924 -1.859236 -0.5019873 1.3852761 1.8655537 -0.011950004 -0.008844289
-0.30761823 0.49545887 -0.44918805 0.78874624 -1.1573939 1.8050244 -0.103258714 -0.6083244
-0.3840786 -0.113581404 -0.595249 -0.7881012 -0.2538986 -0.42484382 -0.018065894 0.90077835
-0.33864692 -0.66582316 -0.122994654 0.92162734 -1.2200097 0.3806963 0.8797513 -0.10354044
-0.9605976 1.0085683 0.5755522 -0.30560213 -0.12286866 0.82660085 -0.86842215 -0.06490298
-0.36704025 0.29003978 0.99410343 -1.0548533 0.3180815 0.28863466 0.19228391 1.4015332
